src/checkpoints/pretrained_model.ckpt (torch, 14216 bytes, 18 tensors)

net.0.weight f4 [16, 2]
0	0x3c8798b3	0.016552305
1	0xbe600069	-0.21875156
2	0xbeb641d3	-0.35597095
3	0x3e5ec2a1	0.21753933
4	0xbeba0e9d	-0.36339274
5	0xbe222117	-0.15832935
6	0x3ec209a8	0.37897992
7	0x3f12ca60	0.5734005
8	0x3e8a2707	0.269829
9	0xbf2269b9	-0.6344257
10	0x3d9059ea	0.070484
11	0x3e78e167	0.24304734
12	0x3e720b74	0.23637182
13	0xbdd86b51	-0.10567344
14	0x3ebf565b	0.37370571
15	0x3f202531	0.6255675
16	0xbe71caf8	-0.23612583
17	0xbd3a973e	-0.045554392
18	0x3daf62a7	0.08563738
19	0x3e0d0b0a	0.13773742
20	0x3cc6534b	0.024209639
21	0xbf852334	-1.0401368
22	0xbf12ea97	-0.57389206
23	0xbf4acf91	-0.7922297
24	0xbf22cbce	-0.6359223
25	0xbf4508fa	-0.7696682
26	0xbf25cafb	-0.6476285
27	0xbf10c2a9	-0.5654703
28	0xbf446395	-0.7671445
29	0x3ee58c9e	0.44833845
30	0x3f07b0f8	0.5300441
31	0x3e9b763f	0.30363652

net.0.bias f4 [16]
0	0x3ebefed8	0.37303805
1	0x3e5d8244	0.21631724
2	0x3e961419	0.29312208
3	0xbebbea6a	-0.3670228
4	0x3f200ac2	0.62516415
5	0xbc90d5b4	-0.017680027
6	0x3f17f17e	0.5935286
7	0x3e5c6a6a	0.21524969
8	0x3f0a730c	0.540818
9	0x3f0d6911	0.55238444
10	0xbe0920eb	-0.13391463
11	0xbe52698b	-0.20548074
12	0x3dce65a6	0.10077982
13	0xbd3ac527	-0.045598175
14	0x3dcec795	0.10096661
15	0x3eb84f0f	0.35997817

net.1.weight f4 [16, 16]
0	0xbe4a45ea	-0.19753233
1	0xbd68c258	-0.056825966
2	0xbe829d5d	-0.25510684
3	0x3e98711a	0.2977379
4	0xbe1c2b1f	-0.15250824
5	0x3e08e36a	0.13368002
6	0xbd05ef04	-0.032698646
7	0x3e5c6b16	0.21525225
8	0xbcae36a6	-0.021266293
9	0x3b8affec	0.004241934
10	0x3e0403c2	0.12892058
11	0x3e0fa869	0.14029087
12	0xbe8c5c88	-0.27414346
13	0xbeabaa05	-0.33528152
14	0xbd4adb1e	-0.049525373
15	0x3e176454	0.14784366
16	0x3d67bb43	0.05657507
17	0x3e900ac9	0.28133228
18	0x3e264ec5	0.16240986
19	0xbe171c40	-0.1475687
20	0xbe4d0411	-0.20021082
21	0x3e0db660	0.13839102
22	0x3e571402	0.21003726
23	0xbe250b4d	-0.16117592
24	0xbe0dde02	-0.1385422
25	0x3d88f484	0.06687263
26	0xbe3b3bc6	-0.1828452
27	0x3a2a9e41	0.0006508567
28	0xbe39f73c	-0.18160719
29	0x3e0d2d9a	0.13786927
30	0xbc4ae11f	-0.012382775
31	0xbe44e238	-0.1922692
32	0xbe12b4c3	-0.14326768
33	0xbe24c3b3	-0.16090278
34	0x3da3d48b	0.07999524
35	0xbb996d1f	-0.0046821977
36	0x3e8fb1ac	0.2806524
37	0xbd81ff63	-0.06347539
38	0xbd1600bc	-0.036621794
39	0x3e5dcd94	0.21660453
40	0xbe82dc40	-0.25558662
41	0xbda45ea6	-0.08025865
42	0xbbe3da6c	-0.006953528
43	0x3e5a7f0f	0.21337532
44	0x3de1ca21	0.11024881
45	0xbdff13e1	-0.124549635
46	0xbe60a449	-0.2193767
47	0x3e020307	0.12696467
48	0xbdb89737	-0.09013217
49	0x3e0a0a15	0.13480408
50	0xbdaf85ab	-0.08570417
51	0xbe2459ce	-0.16049883
52	0xbd471465	-0.048603434
53	0x3dd9c5b5	0.10633413
54	0x3e3babd7	0.1832727
55	0x3d33360c	0.043752715
56	0xbe046ecd	-0.12932892
57	0x3de879f7	0.11351388
58	0x3cf5c9f4	0.030003525
59	0x3e1997e3	0.14999346
60	0xbd216666	-0.039404295
61	0x3c99670b	0.018725893
62	0x3e4c87e8	0.19973719
63	0x3d6c1616	0.05763825
64	0x3e2ba116	0.16760668
65	0xbe59264d	-0.21206017
66	0x3ddf5a45	0.109058894
67	0xbdaaefbd	-0.08346508
68	0x3d086cdf	0.033306953
69	0xbd9241b5	-0.07141439
70	0xbd3f4295	-0.046694357
71	0x3e3c5534	0.18391877
72	0x3e4219f1	0.18955208
73	0x3dcf89ef	0.101337306
74	0xbdf9a6d5	-0.12190024
75	0xbe0f7210	-0.14008355
76	0x3dfb3ec5	0.12267832
77	0xbe01a346	-0.1265994
78	0xbe95c63c	-0.29252803
79	0x3dd83f57	0.10558956
80	0xbe699eaf	-0.22814439
81	0x3d88ad24	0.06673649
82	0x3c66b38f	0.014080896
83	0x3b33137f	0.0027324853
84	0xbdde8563	-0.10865285
85	0xbd8fe2bc	-0.07025668
86	0xbe3798e7	-0.17929421
87	0xbe224bde	-0.15849254
88	0x3dd6f454	0.10495821
89	0x3e59c766	0.2126747
90	0xbe9c144d	-0.30484238
91	0xbe514158	-0.20435083
92	0xbdcacdf5	-0.099025644
93	0x3e925262	0.28578478
94	0x3ea4e495	0.32205644
95	0xbe915f3f	-0.2839298
96	0x3d742294	0.05960329
97	0xbcd328fe	-0.025776383
98	0x3e35250c	0.17689914
99	0xbd880c73	-0.066429995
100	0x3df0e78a	0.117629126
101	0xbdae2576	-0.08503239
102	0xbe5954f8	-0.2122382
103	0x3ce8dbe0	0.028425157
104	0xbe147109	-0.14496244
105	0xbbecb1a7	-0.0072233262
106	0x3cbc175b	0.022960356
107	0xbe73b283	-0.23798566
108	0x3dd88ea5	0.10574082
109	0x3e000d60	0.12505102
110	0x3ddc8e85	0.10769371
111	0x3d8f2657	0.069897346
112	0xbe7364f6	-0.23768982
113	0xbe09621f	-0.13416336
114	0x3c937be8	0.018003419
115	0xbce48776	-0.027896624
116	0xbe8a142b	-0.26968512
117	0x3df4f5e8	0.119609654
118	0xbe56968a	-0.20955864
119	0x3b8aa20c	0.0042307433
120	0xbe5b0f1d	-0.21392484
121	0x3d7d9549	0.061909948
122	0xbdd12059	-0.10211248
123	0x3e502151	0.20325209
124	0x3d9ef03e	0.07760666
125	0xbe1c3418	-0.15254247
126	0x3ea8422e	0.3286299
127	0xbe816eb0	-0.2527976
128	0x3ded4bf7	0.11586755
129	0xbe72c577	-0.2370814
130	0x3dbe0290	0.092778325
131	0x3d84f69c	0.064923495
132	0x3dcb1e26	0.0991786
133	0xbd16d3f2	-0.03682322
134	0x3e75e982	0.24014857
135	0x3e61d6eb	0.22054641
136	0xbd5a3148	-0.053269655
137	0xbda77569	-0.08176691
138	0x3e17144a	0.14753833
139	0x3e1797f2	0.14804056
140	0x3e54683c	0.20742887
141	0x3e4af675	0.19820578
142	0x3d0bc8a7	0.034126904
143	0x3d461738	0.048361987
144	0xbe52ebb7	-0.2059773
145	0xbe401260	-0.1875701
146	0x3dc832cb	0.09775313
147	0xbdbeb04a	-0.09310968
148	0xbd038633	-0.032110404
149	0x3ea548b0	0.3228202
150	0xbe4b5e7e	-0.19860265
151	0xbd98cda3	-0.07461097
152	0xbe8c2e1d	-0.27378932
153	0x3e1e171d	0.15438505
154	0xbe144c86	-0.14482316
155	0x3d70164d	0.058615018
156	0xbe1aa714	-0.15102798
157	0xbe380546	-0.17970762
158	0x3e4ddb47	0.20103179
159	0xbdd97acd	-0.106191255
160	0xbe4b406c	-0.19848794
161	0x3e4e7d31	0.20164944
162	0x3e1f23b9	0.15540971
163	0x3c96d7c2	0.018413428
164	0xbe941ac4	-0.2892667
165	0x3e2a8db9	0.16655625
166	0x3ac4078c	0.0014955862
167	0x3e50ef0d	0.2040369
168	0x3dd7e52c	0.10541758
169	0x3d1657db	0.03670488
170	0xbee9fe3c	-0.45701778
171	0xbe079ade	-0.13242671
172	0xbd1d872e	-0.038458996
173	0xbda149a8	-0.07875377
174	0xbe0a33e3	-0.13496356
175	0x3d2b8930	0.04187888
176	0xbd22711a	-0.039658643
177	0xbe2d8866	-0.16946563
178	0x3daae32b	0.0834411
179	0x3dd32cad	0.103112556
180	0x3e814629	0.2524884
181	0x3e6dab11	0.23209788
182	0x3c81a3d5	0.015825192
183	0xbe4a11d2	-0.1973336
184	0x3d79ec13	0.061016154
185	0x3e12664f	0.1429684
186	0x3e6a11c9	0.22858347
187	0x3dfa8378	0.12232107
188	0x3dcca8d2	0.099931374
189	0x3c4d2cea	0.012522915
190	0xbd878e35	-0.06618921
191	0x3e220869	0.1582352
192	0xbe79835f	-0.2436652
193	0x3d4d4766	0.05011692
194	0xbb558ca5	-0.0032585051
195	0x3df6c6c3	0.120496295
196	0xbd0040bc	-0.031311736
197	0x3e2c3eb3	0.16820793
198	0x3dc8e0b3	0.09808483
199	0xbe388d96	-0.18022761
200	0xbe160c2a	-0.14653078
201	0x3e1da32b	0.15394275
202	0xbe3a229d	-0.18177266
203	0xbe2d6b07	-0.16935359
204	0x3d5de864	0.054176703
205	0x3d1279cf	0.035760697
206	0xbe9589f7	-0.2920682
207	0x3e386260	0.18006277
208	0xbe2ee873	-0.1708086
209	0x3e84acea	0.25913173
210	0x3d30bf01	0.043150906
211	0xbd6d33fd	-0.057910908
212	0x3d8460fd	0.064638115
213	0xbe93dfb5	-0.28881612
214	0x3e19e543	0.15028863
215	0xbe79ac03	-0.24382024
216	0xbe484878	-0.19558895
217	0x3cbb9d4f	0.022902159
218	0x3e2aac33	0.16667251
219	0x3e877299	0.2645462
220	0xbdd5bc72	-0.10436334
221	0x3d2cf8c2	0.04222942
222	0x3e8191cd	0.2530655
223	0x3d92f0f3	0.07174864
224	0xbe51daff	-0.20493697
225	0x3d25fc3f	0.040523764
226	0x3db3928c	0.08768186
227	0xbe5244a7	-0.20534001
228	0x3dff3727	0.12461691
229	0xbd403ab6	-0.04693099
230	0xbde21415	-0.110389866
231	0x3d96a2f9	0.07355303
232	0x3df6100d	0.1201478
233	0x3e2bf896	0.16794047
234	0x3dd966fb	0.10615345
235	0xbe042ae3	-0.12906985
236	0x3e517d7d	0.20458026
237	0x3e422e10	0.18962884
238	0x3dfbe6a1	0.12299848
239	0xbe57be61	-0.21068718
240	0x3ce0addb	0.02742665
241	0x3e3c2985	0.18375213
242	0xbd77559e	-0.060384385
243	0xbe010833	-0.12600784
244	0xbe4beaf0	-0.1991384
245	0x3d186c91	0.037212912
246	0x3de8184e	0.11332761
247	0xba062053	-0.0005116511
248	0x3d344409	0.044010196
249	0x3dc7e867	0.09761124
250	0x3e6e9007	0.2329713
251	0x3e3dae1c	0.18523449
252	0xbc89d7a1	-0.016826453
253	0xbe668aca	-0.22513881
254	0xbd80b741	-0.06284953
255	0xbd4f02e0	-0.05053985

net.1.bias f4 [16]
0	0x3e1d2dbd	0.15349479
1	0x3daca52e	0.08429943
2	0x3dbfcd88	0.09365374
3	0x3de157d7	0.11003082
4	0xbe5ccee9	-0.21563305
5	0xbdb3f9c8	-0.08787876
6	0x3e1f5100	0.15558243
7	0xbdec1289	-0.11526973
8	0x3d9b1c1c	0.07573721
9	0x3e36802f	0.17822336
10	0x3e375142	0.17902091
11	0xbe3d74ab	-0.18501537
12	0x3df146ce	0.11781083
13	0xbc850590	-0.016238004
14	0x3d88caac	0.066792816
15	0x3e639599	0.22225036

net.2.weight f4 [2, 16]
0	0x3e3eb6f6	0.18624482
1	0xbe82b70b	-0.25530276
2	0x3e235cca	0.15953365
3	0xbe5c4c4e	-0.21513483
4	0x3e7baca4	0.24577576
5	0xbe989f4d	-0.29809037
6	0x3e4f0b29	0.20219101
7	0xbe533f04	-0.20629507
8	0x3d6abd83	0.05730964
9	0x3d99e939	0.07515187
10	0x3d8ba471	0.06818474
11	0x3e6af2cc	0.22944182
12	0x3e2459fa	0.16049948
13	0xbeaea84c	-0.34112775
14	0xbe8d760f	-0.27629134
15	0x3e6526a0	0.22378016
16	0x3dda47df	0.106582396
17	0x3bbc73a7	0.0057510915
18	0xbde0c973	-0.109759234
19	0x3dae06a4	0.0849736
20	0xbd744fde	-0.05964648
21	0x3e3be7e6	0.18350181
22	0xbdd80fbd	-0.10549877
23	0x3e00a91a	0.12564507
24	0xbdb3087f	-0.08741855
25	0x3e32c30e	0.1745722
26	0x3eb026ea	0.3440469
27	0xbe6f2a33	-0.23355941
28	0x3cedeb1b	0.029042771
29	0xbe41708d	-0.18890591
30	0xbd9074a9	-0.07053501
31	0xbe175543	-0.14778619

net.2.bias f4 [2]
0	0xbe41cd32	-0.18925932
1	0x3e25e292	0.16199711

exp_avg f4 [16, 2]
0	0xb70176f4	-7.716695e-06
1	0x379ff796	1.9069568e-05
2	0x37a06e5a	1.9124873e-05
3	0xb7e44c67	-2.7215296e-05
4	0x35cf812e	1.5460298e-06
5	0xb51e135c	-5.888776e-07
6	0xb76aab3d	-1.3987356e-05
7	0x3784b2a2	1.5818809e-05
8	0xb6353126	-2.699971e-06
9	0x379fd751	1.9054542e-05
10	0xb7749fb0	-1.45807135e-05
11	0x371cd9d7	9.349044e-06
12	0x36b462bd	5.3759127e-06
13	0xb55352dc	-7.87242e-07
14	0xb78d9369	-1.6877153e-05
15	0x378ebff4	1.7017104e-05
16	0xb6a1c133	-4.8206653e-06
17	0x36bf7e62	5.7069565e-06
18	0x3683714a	3.917293e-06
19	0xb6fede0d	-7.59564e-06
20	0x35b98b3b	1.3824096e-06
21	0x379dc7ab	1.8808836e-05
22	0x36ca4753	6.0283724e-06
23	0xb55d45d0	-8.2430506e-07
24	0xb64cd8c0	-3.0524534e-06
25	0x37453b21	1.1755882e-05
26	0x37baf387	2.228633e-05
27	0xb7d20d3a	-2.504011e-05
28	0x38072160	3.221759e-05
29	0xb83f1e1d	-4.5565994e-05
30	0xb7b4a595	-2.1534777e-05
31	0x380e8fb6	3.398928e-05

exp_avg_sq f4 [16, 2]
0	0x3966292b	0.00021949846
1	0x378c5c43	1.6732263e-05
2	0x390b9e26	0.00013314988
3	0x369dbb40	4.7007634e-06
4	0x38b7f198	8.77112e-05
5	0x365617ba	3.1902296e-06
6	0x388628c0	6.397208e-05
7	0x36a21988	4.8309485e-06
8	0x38977023	7.221128e-05
9	0x36f09e77	7.171005e-06
10	0x381b7be8	3.7070276e-05
11	0x362d49d3	2.582198e-06
12	0x38c6b1b3	9.474475e-05
13	0x365f2885	3.3253175e-06
14	0x38cdcc9d	9.813274e-05
15	0x36db6346	6.5382656e-06
16	0x38c343f1	9.31098e-05
17	0x367f1b51	3.8013861e-06
18	0x388fc212	6.85492e-05
19	0x36b26890	5.316986e-06
20	0x3899d0f9	7.334533e-05
21	0x36c658f3	5.911215e-06
22	0x38594575	5.180152e-05
23	0x3621071b	2.3995005e-06
24	0x3991b826	0.00027793756
25	0x3745f433	1.1798972e-05
26	0x38f3df06	0.00011628684
27	0x36eb7c3c	7.0180085e-06
28	0x39b31397	0.00034156136
29	0x37ab7345	2.0438465e-05
30	0x39942c00	0.00028261542
31	0x37afd9f1	2.0963113e-05

exp_avg f4 [16]
0	0xb8b91289	-8.82494e-05
1	0x38c6fa4f	9.487999e-05
2	0xb618a9f3	-2.2748688e-06
3	0xb83929cc	-4.4146364e-05
4	0xb8e139f6	-0.00010739632
5	0xb5fb5500	-1.8725696e-06
6	0xb783f704	-1.5731443e-05
7	0xb829a3d4	-4.0445317e-05
8	0xb78cb2eb	-1.6772616e-05
9	0x3805f1f0	3.1934993e-05
10	0xb8feebc9	-0.00012155582
11	0xb7973b01	-1.8028079e-05
12	0xb87f9cd4	-6.0942795e-05
13	0x38915694	6.930265e-05
14	0x3925c0d7	0.00015807465
15	0xb905abb5	-0.00012747834

exp_avg_sq f4 [16]
0	0x39bc8402	0.00035956508
1	0x39232213	0.00015557585
2	0x38c5389a	9.404235e-05
3	0x38ecfb6b	0.00011300187
4	0x392d53c7	0.00016529775
5	0x388ef698	6.817019e-05
6	0x38ed5eb7	0.00011318683
7	0x3918b8c7	0.00014564685
8	0x38d864d3	0.000103184626
9	0x38f9d326	0.00011912575
10	0x391e7ac8	0.00015113794
11	0x388831c9	6.4942586e-05
12	0x39a9008d	0.00032234602
13	0x39359cf5	0.00017319976
14	0x3a033c3e	0.000500623
15	0x39f2f9da	0.0004634399

exp_avg f4 [16, 16]
0	0xb75b76fe	-1.3081122e-05
1	0x3643c45d	2.9171563e-06
2	0xb68d58d9	-4.2124707e-06
3	0x37441e15	1.1689514e-05
4	0xb7f6eba6	-2.9435218e-05
5	0x3638e41e	2.7550918e-06
6	0xb7adce16	-2.0719173e-05
7	0xb6392c6b	-2.7593003e-06
8	0xb73a8794	-1.1118031e-05
9	0xb7691b83	-1.3894288e-05
10	0xb73e9a08	-1.1360746e-05
11	0x365e0426	3.3082993e-06
12	0xb66640fe	-3.4310501e-06
13	0x3666097f	3.4278198e-06
14	0x3782a83c	1.5575548e-05
15	0xb76227d9	-1.34799275e-05
16	0x3808a305	3.257675e-05
17	0x36967151	4.48354e-06
18	0x379bc7d7	1.8570498e-05
19	0xb80b4522	-3.3204567e-05
20	0x38886bb0	6.505044e-05
21	0xb6bc1652	-5.605435e-06
22	0x3851da77	5.0032944e-05
23	0x37077ee3	8.07617e-06
24	0x38188837	3.6366484e-05
25	0x382291eb	3.8759707e-05
26	0x3772a60e	1.4462987e-05
27	0xb6eee8ba	-7.1200457e-06
28	0x3764e9d5	1.3644302e-05
29	0xb6020876	-1.9376434e-06
30	0xb78b0a4f	-1.6574892e-05
31	0x37f1c5b0	2.8821494e-05
32	0xb8005035	-3.0592277e-05
33	0xb71278ba	-8.730387e-06
34	0xb7ac5e63	-2.054795e-05
35	0x3809647f	3.275694e-05
36	0xb872e6c1	-5.7912202e-05
37	0x36a06be8	4.7809335e-06
38	0xb8428b10	-4.6382716e-05
39	0xb70702d4	-8.0472855e-06
40	0xb81d3ea7	-3.7490066e-05
41	0xb81f6027	-3.7998103e-05
42	0xb70a9b7c	-8.2616425e-06
43	0x36d1e5d0	6.255439e-06
44	0xb777e48e	-1.4775562e-05
45	0xb5412754	-7.195533e-07
46	0x36eb824c	7.0187143e-06
47	0xb7d3b77d	-2.5238603e-05
48	0x3813929e	3.518408e-05
49	0x370a8522	8.256438e-06
50	0x37bbf1f4	2.2404805e-05
51	0xb81b67e7	-3.7051646e-05
52	0x388e4f20	6.785826e-05
53	0xb6bee558	-5.6891404e-06
54	0x3860bdce	5.358253e-05
55	0x371836bc	9.07265e-06
56	0x382f5174	4.179911e-05
57	0x3834a647	4.3070202e-05
58	0x3742a4da	1.1601684e-05
59	0xb6f71fae	-7.3648616e-06
60	0x37880c6d	1.621825e-05
61	0xb43c15b8	-1.7516766e-07
62	0xb74008ea	-1.1446167e-05
63	0x37f98c45	2.9748431e-05
64	0xb8196331	-3.657042e-05
65	0xb6f60667	-7.3321166e-06
66	0xb7bc24c5	-2.2428469e-05
67	0x381fb4a9	3.8076807e-05
68	0xb895c1f7	-7.1410024e-05
69	0x36cae886	6.0471384e-06
70	0xb86a4b28	-5.5859942e-05
71	0xb71c0bbd	-9.301058e-06
72	0xb8325aad	-4.2522955e-05
73	0xb839e922	-4.432456e-05
74	0xb763023d	-1.35307755e-05
75	0x370267ed	7.772801e-06
76	0xb788de53	-1.6315991e-05
77	0x356d0261	8.829284e-07
78	0x376f3d7e	1.4259827e-05
79	0xb803ce1f	-3.14248e-05
80	0x38670350	5.5077777e-05
81	0x377d653f	1.5103548e-05
82	0x38196487	3.6571666e-05
83	0xb8767652	-5.8761165e-05
84	0x38db9024	0.00010469582
85	0xb7118383	-8.673293e-06
86	0x38af4c21	8.3588304e-05
87	0x377201f7	1.44247815e-05
88	0x388c992a	6.704249e-05
89	0x388f0311	6.8193425e-05
90	0x3782d81a	1.5597838e-05
91	0xb73debbd	-1.1320165e-05
92	0x37dcead6	2.6335398e-05
93	0x357f3816	9.507652e-07
94	0xb7677e9f	-1.3798154e-05
95	0x383fa02c	4.568712e-05
96	0xb814fdfb	-3.5522487e-05
97	0xb71a011a	-9.179372e-06
98	0xb7c29f65	-2.3200826e-05
99	0x381e2307	3.7702757e-05
100	0xb88e6f62	-6.791834e-05
101	0x36bdb7d2	5.6540384e-06
102	0xb8626df5	-5.3985004e-05
103	0xb71b1b94	-9.245141e-06
104	0xb8339e29	-4.2824224e-05
105	0xb837a2fd	-4.3782395e-05
106	0xb733e0d1	-1.0721576e-05
107	0x36f6bfed	7.3537144e-06
108	0xb78c70f7	-1.6741904e-05
109	0xb4a0287c	-2.983178e-07
110	0x37271e6e	9.961061e-06
111	0xb7f9141d	-2.9692479e-05
112	0x381f4e1c	3.79813e-05
113	0x372e0720	1.0372867e-05
114	0x37d3504d	2.5190553e-05
115	0xb829e5e8	-4.0506857e-05
116	0x389778ce	7.222743e-05
117	0xb6c8d8e4	-5.985714e-06
118	0x3871ca7b	5.7647452e-05
119	0x3726ce62	9.942423e-06
120	0x3841c7a8	4.620073e-05
121	0x38452d2b	4.7010526e-05
122	0x37354e00	1.08066015e-05
123	0xb7030698	-7.809744e-06
124	0x37983182	1.8142866e-05
125	0x3529bc26	6.32312e-07
126	0xb720fb74	-9.595289e-06
127	0x380436cb	3.1522282e-05
128	0xb782f256	-1.5610054e-05
129	0xb6c2fc35	-5.8110113e-06
130	0xb73f8ec1	-1.1417725e-05
131	0x37902dcf	1.7187469e-05
132	0xb7efe4ba	-2.859753e-05
133	0x3619fe89	2.2946936e-06
134	0xb7c504aa	-2.3486402e-05
135	0xb68e6e5f	-4.2447787e-06
136	0xb7a8e038	-2.013157e-05
137	0xb7a6abbe	-1.9868716e-05
138	0xb62fcc85	-2.6196078e-06
139	0x364d7e93	3.0621056e-06
140	0xb708607f	-8.128699e-06
141	0xb597986e	-1.129474e-06
142	0x35887c42	1.0168953e-06
143	0xb74edb8c	-1.2329674e-05
144	0x36f89d52	7.4092904e-06
145	0x370f09a4	8.525709e-06
146	0x371d7886	9.385991e-06
147	0xb72a9513	-1.0167499e-05
148	0x371fbf7d	9.521723e-06
149	0xb4fdc3de	-4.7267434e-07
150	0x372e2306	1.0379363e-05
151	0x362ee621	2.6061973e-06
152	0x3767caf0	1.3815923e-05
153	0x37407777	1.1471907e-05
154	0xb6ba16ad	-5.5458718e-06
155	0xb572bede	-9.0429774e-07
156	0x36d576e4	6.3617354e-06
157	0x367d5f36	3.7755358e-06
158	0x372edcd0	1.042262e-05
159	0x366c4e7e	3.521243e-06
160	0x37cebbd8	2.4644585e-05
161	0x3797f999	1.811683e-05
162	0x37caccc2	2.4175624e-05
163	0xb7fdc08e	-3.0249616e-05
164	0x382303f2	3.8865903e-05
165	0xb632f14e	-2.6664525e-06
166	0x38168729	3.5888665e-05
167	0x36ffb039	7.620107e-06
168	0x382103dc	3.8388986e-05
169	0x3810d854	3.4533747e-05
170	0xb6d680e2	-6.392701e-06
171	0xb685b723	-3.985029e-06
172	0x378c32ef	1.6713018e-05
173	0x36e44f9c	6.8041973e-06
174	0x37805f04	1.5303034e-05
175	0x3784fbab	1.5852818e-05
176	0xb8572ce2	-5.1301795e-05
177	0xb78ccf01	-1.6785694e-05
178	0xb816b700	-3.593322e-05
179	0x386988ee	5.5679055e-05
180	0xb8c8819b	-9.560884e-05
181	0x3702a934	7.7879995e-06
182	0xb8a28550	-7.749593e-05
183	0xb7661a71	-1.3715225e-05
184	0xb8872b5c	-6.445378e-05
185	0xb88739a9	-6.448042e-05
186	0xb73e10aa	-1.1328762e-05
187	0x372c9322	1.0286256e-05
188	0xb7d7a900	-2.5708694e-05
189	0xb621d06e	-2.4112192e-06
190	0x37016abe	7.713852e-06
191	0xb82de256	-4.1457206e-05
192	0xb7915042	-1.732272e-05
193	0xb584d2f4	-9.896162e-07
194	0xb7159604	-8.91602e-06
195	0x37900abd	1.7171138e-05
196	0xb815316c	-3.5570396e-05
197	0x36520bf2	3.1299392e-06
198	0xb7e0bc61	-2.6790602e-05
199	0xb68b478d	-4.1508524e-06
200	0xb79993a1	-1.8307766e-05
201	0xb7a8c031	-2.0116657e-05
202	0xb71c949a	-9.332924e-06
203	0x36837744	3.9179886e-06
204	0xb6df2a83	-6.650867e-06
205	0x35f351b8	1.8128694e-06
206	0x37401ad5	1.1450339e-05
207	0xb7854916	-1.5888869e-05
208	0x37cdfd69	2.4555908e-05
209	0xb6a7bb12	-4.9987657e-06
210	0x370a2e3e	8.236208e-06
211	0xb7b979de	-2.2110467e-05
212	0x38665a78	5.492053e-05
213	0xb6abd5b1	-5.121074e-06
214	0x3822dd92	3.8830163e-05
215	0x36af6b0a	5.2278674e-06
216	0x37b208dc	2.1223379e-05
217	0x37dc356c	2.625092e-05
218	0x37ae314a	2.0765368e-05
219	0xb6ced282	-6.1637847e-06
220	0x36df1a60	6.6489883e-06
221	0xb6cee2d4	-6.1656847e-06
222	0xb7edb291	-2.8335753e-05
223	0x37d2a52d	2.5110867e-05
224	0x37e9a29a	2.7851482e-05
225	0x35174ce4	5.6363774e-07
226	0x3764a4c8	1.3628225e-05
227	0xb7e494fc	-2.7249094e-05
228	0x3872e67a	5.7911944e-05
229	0xb6ac8848	-5.1418647e-06
230	0x38353db8	4.3211243e-05
231	0x36dc6ecf	6.5694107e-06
232	0x37f08dd0	2.8676266e-05
233	0x380622b7	3.198042e-05
234	0x37880332	1.6213951e-05
235	0xb6d6b2f0	-6.398528e-06
236	0x372be66c	1.02460435e-05
237	0xb66a6891	-3.4929583e-06
238	0xb7aabb5b	-2.0352823e-05
239	0x37d9c9ae	2.596233e-05
240	0xb8317435	-4.2308315e-05
241	0xb74788e5	-1.1893198e-05
242	0xb7ed574c	-2.8293252e-05
243	0x383dbf9f	4.5239573e-05
244	0xb8a83ab9	-8.021802e-05
245	0x36de83a6	6.6314415e-06
246	0xb88692e8	-6.416981e-05
247	0xb73a645a	-1.1109829e-05
248	0xb858e7c5	-5.1714265e-05
249	0xb85c2472	-5.248603e-05
250	0xb74345d1	-1.1639161e-05
251	0x3711696f	8.667222e-06
252	0xb7aac3d4	-2.0356769e-05
253	0xb5702015	-8.945365e-07
254	0x372894aa	1.0048194e-05
255	0xb812b3d6	-3.4976598e-05

exp_avg_sq f4 [16, 16]
0	0x37dfd78f	2.6684049e-05
1	0x37e56426	2.7345563e-05
2	0x3822f510	3.8852042e-05
3	0x37f9a397	2.975929e-05
4	0x389acc0d	7.3813e-05
5	0x3587cd3a	1.0118013e-06
6	0x38ab2dba	8.162433e-05
7	0x37f723a8	2.9461298e-05
8	0x388fd236	6.857926e-05
9	0x388208da	6.200532e-05
10	0x37404f99	1.1462625e-05
11	0x38850f0c	6.344737e-05
12	0x388459fe	6.311013e-05
13	0x38451b8d	4.699412e-05
14	0x38af1313	8.348203e-05
15	0x388283de	6.223445e-05
16	0x389757fc	7.2166295e-05
17	0x38a62180	7.921737e-05
18	0x38f16e70	0.00011512346
19	0x38afb0b4	8.377564e-05
20	0x3940ebcd	0.0001839839
21	0x365306b3	3.144535e-06
22	0x39594be9	0.00020723011
23	0x3894c1d9	7.093297e-05
24	0x394e878b	0.00019696185
25	0x39288c8c	0.00016074086
26	0x3801a6d2	3.091136e-05
27	0x392805d0	0.00016023894
28	0x39364f88	0.000173865
29	0x38f7229b	0.000117843236
30	0x39734303	0.0002319925
31	0x391ce889	0.00014963945
32	0x37a5ec64	1.977961e-05
33	0x37b15b3e	2.1142532e-05
34	0x37f2ce13	2.8944609e-05
35	0x37f68a2a	2.9389823e-05
36	0x384252f7	4.633047e-05
37	0x35247e80	6.127884e-07
38	0x38360547	4.3397096e-05
39	0x3711c1dd	8.687811e-06
40	0x3868dec1	5.5520566e-05
41	0x38231dba	3.8889913e-05
42	0x36e69a9a	6.872532e-06
43	0x3786e276	1.6079499e-05
44	0x37e224d0	2.6958442e-05
45	0x378755df	1.6133241e-05
46	0x3847f220	4.7670794e-05
47	0x37a4c95f	1.9644094e-05
48	0x38aace67	8.144677e-05
49	0x38c3ed0b	9.342477e-05
50	0x390ce9f5	0.00013438596
51	0x38e82d3d	0.00011071048
52	0x393dc4e1	0.00018097788
53	0x366a33e6	3.4898926e-06
54	0x39438c32	0.00018648876
55	0x384805de	4.768918e-05
56	0x3978e37d	0.00023735869
57	0x39278432	0.00015975608
58	0x38016892	3.0853385e-05
59	0x38dcbd72	0.000105257044
60	0x391f4d00	0.00015192106
61	0x38b7a241	8.756342e-05
62	0x39742eb2	0.00023287049
63	0x38d5d2c2	0.00010195888
64	0x38727239	5.7803674e-05
65	0x3890b288	6.899709e-05
66	0x38ccc381	9.7638935e-05
67	0x38a523eb	7.874503e-05
68	0x3905b9a6	0.00012753028
69	0x3627ede5	2.5023412e-06
70	0x390bce24	0.00013332866
71	0x38163c58	3.5818986e-05
72	0x3932ab46	0.00017039207
73	0x38eec686	0.00011385702
74	0x37c02421	2.2905007e-05
75	0x38a61c2b	7.9207435e-05
76	0x38ecaaff	0.000112852074
77	0x388c3f31	6.6874905e-05
78	0x3937441d	0.00017477614
79	0x389f7c10	7.604819e-05
80	0x38d3843e	0.00010085896
81	0x38f35660	0.000116032315
82	0x392a4481	0.00016237983
83	0x3912f722	0.00014015709
84	0x3970c914	0.00022963091
85	0x36849221	3.950918e-06
86	0x39745265	0.00023300348
87	0x3878620e	5.9219128e-05
88	0x3998b57f	0.00029126924
89	0x395232ce	0.00020046087
90	0x3822e6c9	3.8838745e-05
91	0x390428e7	0.00012603738
92	0x393db6db	0.00018092564
93	0x38e50607	0.000109206936
94	0x3996bb1f	0.00028749646
95	0x3905de0c	0.00012766587
96	0x38d51dfc	0.000101622165
97	0x38fc082a	0.00012017817
98	0x393590c5	0.00017315436
99	0x391202f3	0.00013924744
100	0x39617395	0.0002150073
101	0x369b012e	4.6194973e-06
102	0x3965ae1d	0.00021904004
103	0x386285bd	5.4007152e-05
104	0x399ed6e6	0.0003029622
105	0x3948a849	0.00019136177
106	0x3820d280	3.8343016e-05
107	0x38fa2417	0.00011927651
108	0x39443387	0.00018711212
109	0x38d7d283	0.0001029121
110	0x399a765b	0.0002946135
111	0x38efaea4	0.000114289374
112	0x38929e01	6.991253e-05
113	0x38ac3c9d	8.212889e-05
114	0x38f3445b	0.00011599875
115	0x38cee681	9.86578e-05
116	0x391d7566	0.00015016421
117	0x36444d21	2.925117e-06
118	0x391c8218	0.00014925783
119	0x3811a9fb	3.4729e-05
120	0x3958fbbe	0.00020693147
121	0x390a8c5a	0.0001321299
122	0x37db5cfe	2.6150137e-05
123	0x389a1d85	7.348791e-05
124	0x38fb5453	0.00011984319
125	0x388c59a5	6.692418e-05
126	0x394e657d	0.00019683498
127	0x389c0a4b	7.440577e-05
128	0x373d485f	1.1282128e-05
129	0x375e3db3	1.3246597e-05
130	0x37a18114	1.9252802e-05
131	0x377634fc	1.4675079e-05
132	0x37ccb733	2.4404004e-05
133	0x35109640	5.386282e-07
134	0x37d3c2af	2.5243817e-05
135	0x36ecd147	7.057711e-06
136	0x380b7cc0	3.3256365e-05
137	0x37b409d8	2.1462256e-05
138	0x3692ebe3	4.3786e-06
139	0x3782dc28	1.5599726e-05
140	0x37bb406e	2.232214e-05
141	0x3758ed40	1.2929842e-05
142	0x380e22a2	3.3887693e-05
143	0x37778247	1.475268e-05
144	0x37c9171d	2.397183e-05
145	0x374841e5	1.1936271e-05
146	0x37959a40	1.7834012e-05
147	0x37a5be6b	1.9758203e-05
148	0x38bebe1d	9.0953174e-05
149	0x34d8d82e	4.0390427e-07
150	0x38c7e430	9.531563e-05
151	0x3819bdd5	3.6654837e-05
152	0x382f572f	4.1804447e-05
153	0x388c22ee	6.6822264e-05
154	0x371cc0f3	9.343249e-06
155	0x3898eb1a	7.291716e-05
156	0x38504f14	4.966471e-05
157	0x384cd050	4.8831396e-05
158	0x38581622	5.1519026e-05
159	0x38a65a38	7.9323014e-05
160	0x384656aa	4.728759e-05
161	0x37be191e	2.2661461e-05
162	0x38081298	3.2442244e-05
163	0x3845cc04	4.7158464e-05
164	0x3932d037	0.00017052969
165	0x351b0d94	5.776176e-07
166	0x392a3aab	0.00016234319
167	0x386a9d1a	5.593626e-05
168	0x38b350b0	8.550414e-05
169	0x38fb1081	0.00011971687
170	0x37816950	1.5427038e-05
171	0x38d1e711	0.00010008936
172	0x388cf71a	6.7217465e-05
173	0x38970763	7.201617e-05
174	0x38a49031	7.846987e-05
175	0x3900d4f8	0.00012286368
176	0x388dca60	6.761099e-05
177	0x3898ed0b	7.2920775e-05
178	0x38dd7092	0.00010559069
179	0x38a464e3	7.838921e-05
180	0x39387567	0.00017591343
181	0x363f5714	2.8511904e-06
182	0x394e72ff	0.0001968853
183	0x388d6496	6.7421395e-05
184	0x393f029e	0.00018216154
185	0x391fd1a0	0.00015241513
186	0x37f3c7c5	2.9060882e-05
187	0x391eea13	0.00015155254
188	0x3929657f	0.00016154906
189	0x38e9696a	0.00011129941
190	0x396138ab	0.00021478783
191	0x3915b49b	0.00014277028
192	0x36b9d026	5.5376613e-06
193	0x36cb50be	6.059271e-06
194	0x3704ad9e	7.9082365e-06
195	0x36eb58d0	7.013885e-06
196	0x3786df10	1.6077916e-05
197	0x34253008	1.5384296e-07
198	0x37981ff6	1.8134695e-05
199	0x36d32341	6.292394e-06
200	0x376f1b27	1.4251832e-05
201	0x376a2bd3	1.39576905e-05
202	0x362e2249	2.5947977e-06
203	0x37645eaf	1.3611904e-05
204	0x375d7423	1.3199667e-05
205	0x372f02be	1.0431451e-05
206	0x379906c1	1.8242166e-05
207	0x376388c7	1.35621e-05
208	0x388dec1d	6.7673835e-05
209	0x3864fb56	5.459351e-05
210	0x38a60cd6	7.917888e-05
211	0x3877917f	5.9024893e-05
212	0x39709e15	0.00022947074
213	0x360c05aa	2.0864923e-06
214	0x39891d99	0.00026152728
215	0x38dea03d	0.000106156316
216	0x3917f147	0.00014490365
217	0x3940d4d2	0.00018389829
218	0x3801ba4e	3.0929506e-05
219	0x396ed14e	0.00022775421
220	0x39409d7c	0.00018369214
221	0x3924008c	0.00015640463
222	0x395ab88e	0.00020858852
223	0x396c7f32	0.00022554098
224	0x38a69905	7.943999e-05
225	0x38b777aa	8.748409e-05
226	0x3903c799	0.0001256749
227	0x38c68349	9.4658295e-05
228	0x3952d6d1	0.00020107186
229	0x3660755e	3.3446918e-06
230	0x3969bc8e	0.00022290854
231	0x389c7998	7.461308e-05
232	0x3963fa70	0.00021741702
233	0x393759a1	0.0001748563
234	0x380cc469	3.3561522e-05
235	0x392dfcc1	0.00016592724
236	0x39404aed	0.00018338459
237	0x39029fca	0.00012457292
238	0x39839233	0.00025095194
239	0x392534cb	0.00015755293
240	0x38f27606	0.00011561443
241	0x390e992d	0.00013599238
242	0x394c6469	0.00019492362
243	0x3927aa00	0.00015989691
244	0x3980ebbc	0.00024589698
245	0x36abbe9a	5.118386e-06
246	0x3981d563	0.00024763783
247	0x387ad339	5.980136e-05
248	0x39b4195b	0.00034351167
249	0x3963fd17	0.0002174269
250	0x38357e52	4.3271408e-05
251	0x39084229	0.00012994617
252	0x39591cb8	0.00020705431
253	0x38efb81f	0.00011430703
254	0x39ad5066	0.00033057033
255	0x39053b5f	0.00012705986

exp_avg f4 [16]
0	0xb7dbd2b4	-2.620495e-05
1	0x3899526f	7.310963e-05
2	0xb89650b8	-7.1675924e-05
3	0x38aa6098	8.124224e-05
4	0xb8af56ad	-8.360795e-05
5	0x3906e1b9	0.00012863324
6	0xb8ad325b	-8.258662e-05
7	0x38b9f79f	8.8676104e-05
8	0xb81d332e	-3.747938e-05
9	0x37b58e78	2.1643224e-05
10	0x38889f90	6.514706e-05
11	0xb8ff13fa	-0.000121630685
12	0xb81f2617	-3.7944028e-05
13	0x384fa988	4.9510534e-05
14	0x387d0090	6.0320424e-05
15	0xb8cfa0c7	-9.900476e-05

exp_avg_sq f4 [16]
0	0x3945a273	0.00018847901
1	0x3a03b218	0.00050237915
2	0x390eb239	0.00013608568
3	0x3a10814c	0.0005512431
4	0x39ce2334	0.0003931761
5	0x3a34ef08	0.00069020735
6	0x3a3212e0	0.0006792974
7	0x39f6d2fe	0.00047077978
8	0x389dad1b	7.518587e-05
9	0x3939a0a4	0.00017702818
10	0x39b25c51	0.00034019587
11	0x39f80bfb	0.00047311172
12	0x382d32fc	4.1293897e-05
13	0x3a029af6	0.00049821974
14	0x3a10e253	0.0005526889
15	0x3a4ad904	0.00077380263

exp_avg f4 [2, 16]
0	0x38934ca1	7.0237795e-05
1	0x3649b5b7	3.0057106e-06
2	0xb8882291	-6.491424e-05
3	0xb840a9d0	-4.5934517e-05
4	0xb87659bc	-5.8734542e-05
5	0x39154b0d	0.00014237706
6	0xb8662877	-5.487396e-05
7	0x39813b1f	0.00024648846
8	0xb8de8e8d	-0.00010612337
9	0x38975cb9	7.217512e-05
10	0x37bbcd12	2.238763e-05
11	0xb86603a8	-5.483968e-05
12	0xb7eb7b3b	-2.8071567e-05
13	0x36641cf2	3.3991496e-06
14	0xb88f60e5	-6.8368194e-05
15	0xb8a772a2	-7.9845326e-05
16	0xb8b09dd2	-8.42173e-05
17	0x3807d279	3.2382526e-05
18	0x373a0978	1.10886685e-05
19	0x386f8626	5.7106976e-05
20	0x37ad80f0	2.0683248e-05
21	0xb847ef48	-4.7668145e-05
22	0x386696e5	5.4976805e-05
23	0xb9263ea5	-0.0001585433
24	0x38980157	7.2481744e-05
25	0xb8210919	-3.8393864e-05
26	0x37c93fb6	2.3990735e-05
27	0x3723a3cc	9.753694e-06
28	0x36e3ed29	6.7927363e-06
29	0x372a5052	1.0151491e-05
30	0x38ab20af	8.160003e-05
31	0x38849019	6.321091e-05

exp_avg_sq f4 [2, 16]
0	0x3ad6aa92	0.0016377738
1	0x39c9d9d1	0.00038499993
2	0x393c3364	0.00017948222
3	0x3a29663d	0.0006462073
4	0x398b7f80	0.0002660714
5	0x3a5a0446	0.0008316677
6	0x3a99b36f	0.0011726449
7	0x3b903ffa	0.004402158
8	0x3a9dda21	0.0012043157
9	0x3a2d294e	0.0006605581
10	0x3a5d72d0	0.00084475894
11	0x3939dbdd	0.0001772488
12	0x38c47357	9.367492e-05
13	0x388a14de	6.5842396e-05
14	0x3a9bac38	0.0011876887
15	0x3a58a547	0.00082643743
16	0x3a641480	0.00087005645
17	0x395ecc68	0.00021247717
18	0x399f9b28	0.00030442444
19	0x39ab3d7e	0.00032661477
20	0x39b8c588	0.00035242387
21	0x3a6d8333	0.0009060383
22	0x39937b08	0.0002812969
23	0x3b480402	0.0030519967
24	0x39c7ea83	0.00038130963
25	0x39213999	0.00015375613
26	0x39a0d5fe	0.00030677015
27	0x3866453a	5.4900745e-05
28	0x3961f12a	0.00021547513
29	0x3925e188	0.00015819643
30	0x3a282091	0.0006413544
31	0x39a6b3bf	0.0003179591

exp_avg f4 [2]
0	0xb99333d7	-0.0002807665
1	0x39806ca2	0.00024495

exp_avg_sq f4 [2]
0	0x3c1b27c5	0.009469931
1	0x3babc0fb	0.005241511
